main/assets/mnist.tflite (tflite, 439888 bytes, 6 tensors)

arith.constant f4 [10, 64]
00000000: 8c5c 2cbe 0126 44be 4c87 213e 5435 89be
00000010: 5408 4ebc fc35 1ebe 0018 8dbe f245 d7bd
00000020: d222 8bbe 8308 a03e 2882 18be c415 f5bd
00000030: 3eed 903e a09d 76be e784 51be bde9 883e
00000040: 6a67 4dbd d158 d0bd d1a7 7dbe ba92 763e
00000050: ebd9 eb3d f435 aebe f7bb ecbd 4ec3 963e
00000060: 36fe 34be 30ba 1d3e 803b 03be 06db a7be
00000070: 65fd b93c 24d7 52be 6896 00bf 06e2 7d3e
00000080: 3fb8 ec3d be24 713e 6a5a ff3c de90 51be
00000090: 5597 40bd c4b5 473d ebb4 c5be e1e5 7abe
000000a0: dab5 bcbe e7a3 843e e0a0 483e efab 743e
000000b0: 13bd aebd a6da a33e 169d babe 8604 813d
000000c0: fe1e 90be 9001 d73e 6f7e b93e 713c 813e
000000d0: 97dd b43d 1b02 b83c b9ed 763e 1d8d 26bd
000000e0: d741 a5be c38a 01be 2a7d 93be 98f6 213e
000000f0: a328 6a3e b6c5 d23d 9e68 61bd 00df 193c
00000100: 97c7 f03d 3c8d a9be fa95 243e 6546 96be
00000110: 1145 59be 32dc 9abd 1fec c1bd 3d7f 843e
00000120: 665a 843e 2166 453e 8a57 01bf adcf ebbe
00000130: a3cb de3d c904 643e 4e2a 4c3e b373 bdbe
00000140: f358 ab3e 1e3e a2be 9b58 653e 99da a83e
00000150: 0ffe 2fbd 3e88 b0bc dc39 263e 8bcb 51be
00000160: 47b7 18be cc94 9d3c 76b2 8e3e 36db 3f3e
00000170: fad5 0ebe 32d0 173e a006 763e d6bd 503d
00000180: 98a3 8abe 1a82 45be df5e 97be f36f a73e
00000190: 08c9 903d f8b7 6d3e 34fb 933d 7d38 763c
000001a0: c077 303e 6df6 c1be 9cf1 1ebc f9c5 8ebe
000001b0: f613 3d3d 6ada b03e 433d 81be 0dc0 1e3e
000001c0: 2a90 14be f3f3 87be fad7 05be 7166 3b3e
000001d0: b646 663c d78f 63be fd5b 993e cc91 11be
000001e0: 145f fabc b7db babc 3d62 26bd 0508 19be
000001f0: 86ab 34be 3aa4 4b3d 382d a9be 437f 353c
00000200: d984 553d 2768 393c 0908 433e 91d0 0e3e
00000210: 383a d2bd b271 c53d 38bb 8dbe 0302 473d
00000220: cc5c 5bbe 4b0c 5b3e 5ae3 3dbd 09f1 f7bd
00000230: 2934 33bc 130f 103d eba0 f43a 560d 99be
00000240: 765c aa3d b27a dabe 039c 21bd 757e 943e
00000250: 4690 18be 2817 973d 2cb6 093d 3416 c0b9
00000260: 4d69 713e a05c a13d 50c1 17be 6712 743e
00000270: c08d 443e ae3b 7ebe 185f ba3e 2a32 703e
00000280: 4cd5 a1be 8a6c 30be de19 533e ce69 6d3e
00000290: 7735 74be f6f8 5d3d b174 c1be 768e 22be
000002a0: edf8 93be e6b1 393e 599d 613e fab9 8f3e
000002b0: f8f7 013c 19b4 f3bc 675f 633e 53c1 44be
000002c0: 4cd3 4b3e 2fd2 53be 8042 2c3e 57f7 a4be
000002d0: 5533 debd bbea 19bd aa49 9e3e 4312 88be
000002e0: 91f1 66be ce59 c93d 2d48 5c3e 6bc8 afbe
000002f0: b007 273d 4cc5 c4bd bdcd 523e 5333 35bd
00000300: 0e23 993d a445 573e b320 563d e53d 913e
00000310: 39e7 953e 5c6c 953c c728 433e 0c3f d23d
00000320: 8fd4 45be c858 9a3e d1f9 8bbd d6bc d83d
00000330: 825d 13be 280f 9bbe cbab 89be f051 b2be
00000340: 791f 8d3d f2e2 9b3e 5ed3 9a3e d11f bdbe
00000350: 7d50 7d3e 0ad5 76be 00ef 76be 8273 373d
00000360: 3393 343e 9029 143e a7ef 153e 5a4d 2a3e
00000370: 34cc cebd b98b 423e 50d0 8cbe f2e2 4f3e
00000380: 49c8 89be af88 aebe eec5 3b3d dd21 c3bd
00000390: e5dc f6bd 6508 41bd bfde 46be a21f 0cbe
000003a0: 7d8d 843e c2db 623e 0b4c 63bd 791c 1ebe
000003b0: 9b87 43bd a951 80be 5807 32be e6c0 86be
000003c0: b77a 883d 829f f03c 8e62 003e 1acb 66bc
000003d0: d529 873d ce71 503e bf4f 9ebc 628e 063e
000003e0: c3d9 3dbe 3bf0 243e 1641 a6bd 19d8 213e
000003f0: 8c9b e5bd 4ea1 a63c 5b38 1ebd 9d4b 043a
-0.16832179 -0.19155122 0.15774268 -0.267985 -0.012575228 -0.15450281 -0.27557373 -0.10511388
-0.27175003 0.31256494 -0.148934 -0.11967042 0.28306 -0.24083567 -0.20460854 0.26740828
-0.05014745 -0.101731904 -0.24771048 0.24079409 0.11516174 -0.34025538 -0.11559289 0.2944588
-0.17675099 0.15403056 -0.12815666 -0.3278429 0.022703836 -0.20589882 -0.502295 0.24793252
0.1155858 0.23549172 0.031171042 -0.20465419 -0.04701932 0.04875733 -0.38614592 -0.24501754
-0.36857492 0.25906298 0.19592619 0.23893712 -0.08532157 0.32002753 -0.36447972 0.06299691
-0.28148645 0.4199338 0.36229274 0.25241426 0.088313274 0.022461941 0.24114121 -0.04066192
-0.32276794 -0.1265059 -0.2880643 0.15816724 0.22867064 0.102916166 -0.05503141 0.009391546
0.11756819 -0.33115566 0.16072837 -0.29350582 -0.21217753 -0.0756153 -0.09468865 0.25878325
0.2585022 0.1927724 -0.505242 -0.46056882 0.10878684 0.2226745 0.19938013 -0.37002334
0.334663 -0.31688017 0.22397082 0.32979277 -0.0429669 -0.02154934 0.16233009 -0.20487802
-0.14913665 0.019235991 0.2787053 0.18735966 -0.13948813 0.14825514 0.24025965 0.05096229
-0.27077937 -0.19287911 -0.29564568 0.32702598 0.07069594 0.2321471 0.072256476 0.015028116
0.17233181 -0.3788332 -0.009701159 -0.27885416 0.046161614 0.34541637 -0.2524205 0.15502949
-0.14508119 -0.26553306 -0.1307067 0.18300797 0.014054945 -0.2222284 0.29952994 -0.14215773
-0.030562915 -0.022809846 -0.04062103 -0.14944465 -0.17643556 0.049717166 -0.33042312 0.011077705
0.052128647 0.011316336 0.19046034 0.1394675 -0.102650106 0.09640826 -0.276819 0.048585903
-0.21422118 0.21391408 -0.046359397 -0.12106521 -0.010937729 0.035170626 0.001866368 -0.29892987
0.08318417 -0.42671734 -0.039455425 0.2900273 -0.14898786 0.073774636 0.033621 -0.00036637636
0.23575325 0.07878995 -0.14819837 0.23835145 0.19194698 -0.24827453 0.36400676 0.23456636
-0.31608045 -0.17228904 0.20615336 0.23184893 -0.2384852 0.054192506 -0.3778434 -0.15874657
-0.28900853 0.18134269 0.2203268 0.28071576 0.0079326555 -0.029748963 0.22204362 -0.19214372
0.19904822 -0.20685647 0.16822243 -0.32219955 -0.108496346 -0.037577372 0.30915576 -0.26576433
-0.22553088 0.09831582 0.21511908 -0.34332594 0.040778816 -0.09607944 0.20586295 -0.0442384
0.07477389 0.2102266 0.05227728 0.28367534 0.2927797 0.018240146 0.19058524 0.102659315
-0.19319366 0.3014586 -0.06834758 0.105828926 -0.14391139 -0.30285 -0.2688888 -0.34828138
0.068907686 0.30446583 0.30239385 -0.36938336 0.24737735 -0.24104705 -0.24114609 0.04478789
0.17634277 0.1446898 0.14642201 0.1663107 -0.100975424 0.18998612 -0.2750268 0.20301417
-0.26910618 -0.34088656 0.045843057 -0.09527943 -0.12053851 -0.047127146 -0.19420908 -0.13683942
0.25889197 0.22154143 -0.055492442 -0.15440549 -0.047736745 -0.25062302 -0.17385614 -0.26319045
0.06664031 0.029372934 0.12537596 -0.014086509 0.06599776 0.20355913 -0.019325135 0.13140252
-0.18540101 0.16107266 -0.08117883 0.15805091 -0.11211309 0.020340588 -0.038627964 0.00050466676

arith.constant1 f4 [64, 128]
00000000: 4aca 563e c998 cdbd d525 563e 75b0 44bd
00000010: 9b49 3bbe 1fcb b33d cc5f 47bd 6aeb b5bb
00000020: fe6c 543d 9358 0f3e cdad 85bc a976 04be
00000030: 9772 8cbb 7705 1cbe 92f8 01be c44d 2bbe
00000040: 8c17 00bd 3ba9 51be d702 88bd 4e59 6d3d
00000050: b418 1ebe 3280 48bd b135 d9bd 3443 ddbc
00000060: ea45 a53c e143 143e faa9 883e b5a1 6c3e
00000070: 2540 d23d b1fb 2c3e 654c 963e c7ee 3bbd
00000080: 1079 fabd d9c6 a7bd 0459 2f3d 658f 253d
00000090: 1030 073e 5a46 c2bc 7244 5fbe 80e0 54bd
000000a0: 9660 66bc 5c24 e1bd 019b 123e 2853 183e
000000b0: 0b1f d43d 4f9d 4b3e a767 efbc bb13 8c3d
000000c0: f65f 203e dae7 fa3d d9a7 853c d5b1 0e3e
000000d0: 260e ac3d 4992 7c3d 59f2 c3bd 90c6 483e
000000e0: 6f81 e93d c634 4fbe c186 ca3c f5d1 9cbd
000000f0: ee9d d83e 7335 d53d 78a6 d9bd fb05 3bbd
00000100: dc99 e13d 9f38 293e f3af b4bc 3dce f43d
00000110: 11e7 813d 6534 90bd dbf6 6e3d 154f 5cbe
00000120: bcd2 5c3e 7448 8bbc 2499 c53c 0657 053e
00000130: e361 043e 9fdc 8f3e bd37 ad3d f5ab f93d
00000140: 86d9 3dbc bec0 1ebe 52e9 1f3d 6f62 113e
00000150: 1630 843d 9b22 7b3c 710b de3d a01d c83d
00000160: 6ebe ba3d 7eaa e8bd c393 bebd 5929 8d3e
00000170: 3c85 d83c 830b 0e3d 96e0 0a3e 5afb a23c
00000180: 04ed 31be 9104 243e 4d4d ac3d 0c45 1d3e
00000190: 6ef7 313e 9356 19be 159c 633e f35e 2f3e
000001a0: c96c 8e3d 400f a4be 1bcb fd3d b5a1 1e3d
000001b0: fcdc cd3d 22e7 ec3b dbc1 d13d 24c3 5dbe
000001c0: f19c 273e 563e 353e 553e 9c3d fd0b 37be
000001d0: e25a 62be f8e0 55bd b6df a7bd 2fc7 afbd
000001e0: efb7 12bd ff2c 063e 24e3 df3b ffd8 5ebe
000001f0: 8c86 023e 9f5b 133e e159 05bc a3c4 703b
00000200: 8b54 ecbc cd53 2f3e 36db 783d bc24 88bd
00000210: 26fd c1bd 2358 90bd c239 6e3e 4a1e ccbc
00000220: 55bd e63c 3140 15be 7875 8c3d 0908 15bd
00000230: 78b9 343e 0b8f 9cbe 9d76 693c a256 8d3d
00000240: 7cb1 ff3d 60e2 1cbe 8c27 ca3d 750c 22be
00000250: fb6e 273e 3d30 9bbd f711 073e 1801 11be
00000260: c21e c83d ac0e 673e 5261 61be 14b0 913b
00000270: 4e8b 81ba f4c2 283e d2f8 253b 5fc3 233e
00000280: 05be 193e f928 163e 84c2 12be 37c0 163e
00000290: 7bd6 123e c7c6 0ebe 4ee9 20be 2d42 e73d
000002a0: 9164 063e e58d 32be 3e89 9bbd 9d83 0a3e
000002b0: 94cf d93d 86da e8bd 9a08 523e c833 8cbd
000002c0: dfe1 ba3d 9f70 3e3e fabb 95bd 1bbf f4bd
000002d0: 97d2 1bbe ef4e 343d b857 053d cf68 053e
000002e0: e403 f23d b649 00be 6edf 223e e361 04bc
000002f0: 51bd b73c 1097 03be 969d cabc da45 2d3c
00000300: ea57 18be eecc 9fbd 621f 5abd 53e1 17be
00000310: cd25 56be 973c 123e fd2b 443e f0ef a33b
00000320: 037b 133e 463b a53d 8812 0fbe 8a5f 023e
00000330: 0694 90bc d39a 34be a1a7 f23d faaf 903d
00000340: 0eea 9a3d 8367 113e cd57 d4be 485e 8e3e
00000350: 61e7 053e ae8e ecbc 86b0 0a3e 766c 83bc
00000360: a069 c93d 11ff 27bd 378c 7f3d 0961 043e
00000370: ce13 94bc f143 43be 8754 5dbd fb6f 8bbd
00000380: e18f 213e 0c43 3e3e e687 16be 92d8 253b
00000390: 887e 983d cdd2 e4bd cd9b 8cbd ccb3 bb3c
000003a0: 6dbd 033d a72b 2abd d284 773d 41c4 423e
000003b0: 8733 2bbe 41d0 c73d 3a6d 0e3d bf9a 713d
000003c0: 69d4 23be 87ee c6bd 976b 833d ad4b d1bb
000003d0: ddf0 c93d 6adf dbbd d3cd 243d c1b5 d7bd
000003e0: 4e89 23be 3ede 07bd 6447 47bd 253b f9bd
000003f0: 7e7f dfbc c0a0 cb3d cbf2 cc3d 35c9 a3bd
0.20975605 -0.10038907 0.2091287 -0.048019845 -0.18289797 0.08778977 -0.048675343 -0.005551745
0.051861756 0.13998632 -0.016318226 -0.1293589 -0.004286121 -0.1523646 -0.12692478 -0.16728884
-0.031272456 -0.20474713 -0.06641167 0.057946496 -0.15439111 -0.04895038 -0.10605944 -0.027009584
0.02017494 0.14479019 0.26692182 0.23108561 0.10266141 0.16892888 0.2935516 -0.045882013
-0.12230122 -0.08192224 0.0428095 0.040419955 0.13201928 -0.023715187 -0.21803454 -0.051971912
-0.014061114 -0.10993263 0.14316942 0.14875472 0.103574835 0.19884227 -0.02922423 0.06839701
0.15661606 0.122512534 0.016315388 0.13935025 0.08401136 0.061662946 -0.095677085 0.19606996
0.114016406 -0.20234975 0.024722459 -0.076572336 0.4230799 0.10410585 -0.106274545 -0.04566
0.110156745 0.16525505 -0.022056555 0.11953399 0.063429005 -0.070412435 0.05834089 -0.21514542
0.21564764 -0.017002322 0.024120875 0.13021478 0.12927966 0.28098008 0.08457897 0.12191001
-0.011587506 -0.15503213 0.03904087 0.14197706 0.06454484 0.015328075 0.10842026 0.097712755
0.09118353 -0.11360644 -0.09305527 0.27570608 0.026430719 0.034678947 0.13562235 0.019895244
-0.1737557 0.16017367 0.084131815 0.1535837 0.17379543 -0.14974432 0.2222751 0.17126064
0.06954343 -0.32042885 0.12392255 0.038728435 0.10051915 0.0072297016 0.10242053 -0.21656471
0.16368462 0.1769956 0.076290764 -0.17875667 -0.22104982 -0.0522165 -0.08196966 -0.08582913
-0.035819944 0.13103102 0.006832497 -0.21762465 0.12746638 0.1439042 -0.008139105 0.0036738298
-0.028848907 0.17121811 0.06075593 -0.066476315 -0.09472112 -0.07048061 0.2326422 -0.024916787
0.028166452 -0.14575268 0.06858343 -0.036384616 0.17648876 -0.30577883 0.014249471 0.069012895
0.12485024 -0.1532073 0.09870824 -0.15825064 0.1635093 -0.0757756 0.13190447 -0.14160573
0.097714916 0.2256419 -0.22009781 0.004446039 -0.0009883435 0.16480619 0.002532531 0.15992497
0.15013893 0.14664067 -0.14332014 0.14721762 0.1433963 -0.13943015 -0.15713999 0.11291919
0.131243 -0.17436941 -0.07594536 0.13526769 0.106352955 -0.11369805 0.20511094 -0.06845814
0.09125113 0.18597649 -0.07311244 -0.11950513 -0.15217052 0.04402059 0.03255436 0.13028263
0.11817148 -0.12528118 0.15905544 -0.008079979 0.02242914 -0.12850595 -0.024733346 0.010575736
-0.14877287 -0.07802759 -0.053252585 -0.14832048 -0.20912857 0.14280926 0.19157405 0.005002968
0.14402394 0.08067946 -0.13971913 0.12731758 -0.017648708 -0.17637186 0.11848379 0.07064815
0.07564174 0.14199643 -0.41473237 0.27806306 0.13076545 -0.028876629 0.13543901 -0.01604293
0.098345995 -0.041014735 0.06238958 0.12927641 -0.01807585 -0.19068886 -0.05403569 -0.06808468
0.15777542 0.18580264 -0.14700279 0.0025306088 0.07446009 -0.111730196 -0.06865654 0.022912882
0.032163072 -0.041545536 0.0604294 0.19020177 -0.16718875 0.09756518 0.034772135 0.058985468
-0.15998997 -0.09713464 0.064170055 -0.006387195 0.09860394 -0.10735972 0.04023535 -0.10532714
-0.15970346 -0.03317093 -0.048652068 -0.12169484 -0.027282473 0.0994277 0.100072466 -0.079973616

arith.constant2 f4 [128, 784]
00000000: 286e f1bc c78a 76bd 3898 763c 6042 523b
00000010: 429b 793d 422a c5bc a236 8ebd 00e3 613c
00000020: 39d0 883d 0845 0c3d 58ec c33c 2f07 953d
00000030: c06c 69bd 0da5 2a3d 6545 7b3d 7750 0c3d
00000040: 12be dcbc ee18 b0bc cbf8 3bbd 27fd 17bd
00000050: f4a9 8f3c 0067 3e3a 4103 993d 8959 06bd
00000060: edec 9a3d 64c2 66bd 3883 11bc 80f0 103a
00000070: 50ac 2f3c 40a6 3b3b 96be 27bd d23c f5bc
00000080: 99cc a2bd 50a0 213d a077 1f3d f8d6 913d
00000090: 4434 233d 5031 8e3d b215 2ebd 6462 c73d
000000a0: 0ef9 e6bb 0d69 95bd 9f04 b83c a815 203d
000000b0: 3f34 f53c 8358 043d 163f 97bd 053d 773d
000000c0: f750 3cbd 1468 f1bb 0425 bf3c 2c30 983b
000000d0: 80f3 d23a e3d8 943d 94a1 1ebd d3da a4bd
000000e0: 5a25 6fbd acbb 81bd 8114 8d3c 2c31 ebbc
000000f0: 91da 743d 9e7f 553d 358f a93d 4c16 883d
00000100: 30ee ae3d 991f 9cba 2dc3 c13c eefc 8a3d
00000110: 0770 493d 96ca 2a3d ed08 2bbb df21 e43b
00000120: 7e1c 553d fd8e 84bd ed3c a63c 7cc2 7fbb
00000130: 92fa d9bd fd6e a03d 3652 9f3d 4ae9 e2bc
00000140: c903 bb3d f71a 753d 9615 43bd 9f5d 8d3d
00000150: edfd 993d 4041 b5bc ddf6 9a3d 2a9c 84bd
00000160: 514b 073b 57e1 17bd 6725 9dbd f9d8 79bd
00000170: 16a9 69bd 8018 e5bc ed82 ec3b 48d1 533c
00000180: b6ad 6abc 56ea 0fbe fd77 dfbd 21b3 283d
00000190: 9ba8 963c 2600 9bbd cfd2 b63c 2eee 903c
000001a0: 290a ebbd 96bf 17be 96a4 0abe 1814 b0bc
000001b0: 163a 1dbe cc82 85bd 146a edbd fb04 91bd
000001c0: b4f7 c93c c60a 06bc a132 95bb 69c6 b8bc
000001d0: 2727 c33d 6e36 0f3d 8f2d 64bd da59 38bd
000001e0: 141e 963c 0b84 a8bd aaec abbd 4268 6bbc
000001f0: 6029 113d f370 943d 7364 703d 6986 7a3c
00000200: 2615 923d d6e3 b7bc fb82 ae3d cb92 66bd
00000210: 0d1a a2bd 4c81 cbbd 0cff 88bd 0089 6abd
00000220: e022 fabd 4abc 48be 3c78 47bd cc16 b4bd
00000230: 15d4 843d 3a62 c5bc d010 113d 4e32 e93d
00000240: cd91 e43d 1372 cf39 11f1 17bd 42f9 19bd
00000250: be12 3bbe d80f b6bd 3f10 6abd eb2f b2bd
00000260: 9b27 3abd 202c a4bc 97c0 c2bc efc1 1c3e
00000270: 7623 b63d 8db1 abbc 61ee 9ebb 47d7 e8bb
00000280: 80a1 acbd 74a6 3b3c 8c7f 6a3c ba30 98bd
00000290: 3791 5abd 3fa5 fdbd fcc8 883b ebac 49bd
000002a0: 8f84 17bd 3c52 bdbc 8e10 7b3d ed9e 4a3d
000002b0: 24a0 f23d c187 11be f2e8 e3ba 60ad 9cbd
000002c0: 87be d4bd 9f44 37be 30e2 39be 75cd 7fbd
000002d0: 78f1 43bd f800 0e3d 2ca3 473d cc79 55bd
000002e0: a9f7 92bb 0f28 95bd a3c3 b0bc b9c3 b63d
000002f0: 94e6 99bd ba07 2dbd 6129 d3bc 000f 74bd
00000300: fbde 72bc 9d7d ac3c 8847 b83b 8963 343d
00000310: 80db 313c 0e6a a13b fd53 8bbd 018a bc3c
00000320: a9ab 2cbc c763 62bd bf33 883d 8b0b adbd
00000330: bf67 03be e3cc 3dbe bda1 dabd 6b54 63bc
00000340: b662 cfbd 1f1f ffbc 1bfe b6bc d840 bc3c
00000350: 7bdc 7c3c 9b7d 2a3d 0c3c 6e3c 615b e6bc
00000360: d6fc 6f3c 8e66 123d cfb4 013d dbdf 76bd
00000370: 58b5 77bc 8b64 ddbd a09b e43d e6f5 883c
00000380: 03c1 993d ee26 f7bd cc84 a2bd 5ce7 89bd
00000390: 8a35 07bd 64e5 2f3c 4338 f3bd 2180 00be
000003a0: ea15 b4bd 5165 81bd ec62 16be ed19 bfbd
000003b0: 2bdd dbbd 66f7 bcbc 600a bc3d 6bea ecbc
000003c0: 8f60 2e3d 00c4 353b 8195 fbbc 4729 51bd
000003d0: c89f 273b 89cb 26bd 229a a83d 09b6 ed3d
000003e0: 08f2 e83d 18b8 033d 7944 583e 1f88 cb3d
000003f0: 1676 393d 3a57 b9bd 94b0 f9bc 0351 6fbb
-0.029471472 -0.060190942 0.01505094 0.003208302 0.06093908 -0.024068002 -0.06944014 0.013787031
0.0668034 0.03424552 0.023916408 0.07276761 -0.056988478 0.04166131 0.061345477 0.034256425
-0.026946101 -0.021496262 -0.045891564 -0.03710666 0.017537095 0.0007263273 0.07471324 -0.03280023
0.07564721 -0.05633773 -0.008881383 0.00055290014 0.010722235 0.0028633028 -0.04095324 -0.029936228
-0.0794918 0.039459527 0.038932443 0.0712108 0.039844766 0.06942999 -0.04250116 0.097355634
-0.0070487326 -0.072954275 0.022463141 0.039083153 0.02993214 0.032310974 -0.073850796 0.060360927
-0.04597565 -0.0073671434 0.02333308 0.0046444144 0.0016094297 0.0726793 -0.03872831 -0.0804955
-0.05838523 -0.06334624 0.017221691 -0.02870997 0.059778754 0.05212366 0.08279268 0.06644878
0.085415244 -0.0011911272 0.023652637 0.06786524 0.049179103 0.041697107 -0.002609785 0.0069620456
0.052029125 -0.06472585 0.020292724 -0.0039025834 -0.106434956 0.07833669 0.07779352 -0.027699132
0.09131581 0.05984017 -0.047628008 0.069026224 0.075191356 -0.02212584 0.07566617 -0.064750984
0.0020644257 -0.037080135 -0.076731496 -0.060997937 -0.05704602 -0.027965784 0.007217756 0.0129283145
-0.0143236425 -0.14054236 -0.10911558 0.041186456 0.018390944 -0.07568388 0.022317318 0.017691698
-0.11476547 -0.14819178 -0.13539347 -0.021493956 -0.1535419 -0.06519088 -0.115924984 -0.07081028
0.024654247 -0.0081812795 -0.0045531546 -0.022555547 0.09528952 0.034964018 -0.05570751 -0.045007564
0.01832489 -0.0822831 -0.083947495 -0.014368119 0.03543985 0.07248106 0.058689546 0.015290835
0.0713294 -0.022447508 0.08521076 -0.056292336 -0.07915125 -0.09936771 -0.06689271 -0.05725956
-0.12213683 -0.19603077 -0.04869865 -0.08793411 0.06485764 -0.02409469 0.035416424 0.11386548
0.11160622 0.0003956711 -0.037095133 -0.037591226 -0.18268868 -0.08889741 -0.0571444 -0.08700546
-0.045447927 -0.020040572 -0.023773475 0.15308355 0.088934824 -0.020958686 -0.0048501943 -0.007105741
-0.08429241 0.01145326 0.014312636 -0.07431169 -0.053361144 -0.12385034 0.00417435 -0.049237173
-0.036991652 -0.023110501 0.061295085 0.04946797 0.11846951 -0.14211942 -0.0017388149 -0.07650256
-0.10387903 -0.1789727 -0.1815269 -0.0624518 -0.047837704 0.034668893 0.048739597 -0.052118108
-0.00448509 -0.07283031 -0.021577662 0.0892405 -0.075146824 -0.042243697 -0.025776567 -0.059584618
-0.0148236705 0.02105599 0.0056237616 0.044040237 0.010855556 0.004925973 -0.06803129 0.023015024
-0.010538974 -0.055270936 0.06650495 -0.08449467 -0.12832545 -0.1853519 -0.106753804 -0.013875107
-0.101262495 -0.03114277 -0.022337964 0.022980139 0.015433426 0.041623693 0.0145406835 -0.028119745
0.014647683 0.035742335 0.031666573 -0.06027208 -0.015118919 -0.10810193 0.111624956 0.016718816
0.07507517 -0.12067972 -0.07935485 -0.067335814 -0.033010043 0.010735843 -0.118759654 -0.12548877
-0.08793242 -0.06318153 -0.14686173 -0.09331117 -0.10735544 -0.023067188 0.091816664 -0.028920373
0.042572554 0.0027735233 -0.030710937 -0.051064756 0.0025577415 -0.04072145 0.082325235 0.11606986
0.11374289 0.032157987 0.2111987 0.099380724 0.04527863 -0.0904984 -0.030479707 -0.0036516793

arith.constant3 f4 [10]
00000000: bcaa 2dbd c74d 8cbc 858f 39bc 3545 1c3d
00000010: 8a88 603d 3248 c8ba 4ec8 8abd 629e 76bb
00000020: fd08 403c a6d8 10bc
-0.042399153 -0.01712693 -0.011325722 0.03815194 0.054817714 -0.0015280305 -0.06776486 -0.0037631025
0.011720893 -0.0088407155

arith.constant4 f4 [64]
00000000: f5c8 2d3d 9747 363d aafc 9b3d 8003 833c
00000010: 0e93 db3c 21ab a63b 5b0f c1bc 85c3 093d
00000020: 0dc5 3a3d a554 47bc 8920 753d 8727 383c
00000030: 343b 183b 762e 23bd 2b66 023d 70a6 f83c
00000040: 46cf 83bb eda3 4b3c 56cc 63bc b416 96bc
00000050: d49a 793d 78f1 a43c 9dbd 02bd 3094 a3bc
00000060: bc22 b63c 7237 f6bc b240 4abc f501 c73c
00000070: 2df7 17bd 91cb 013d 99f9 2f3d 851d 083d
00000080: f045 813c 71d6 52bc 4b8a 0a3d ef08 b53c
00000090: 9ad5 9cbc 008b 91bc 6c8c be3c 7945 c63d
000000a0: c48c 1a3b 5d0c 4e3c 9821 ed3c 1d5b 203d
000000b0: 2e13 623c e0fd b8bc b27d 4b3d 916c b4bc
000000c0: 1822 983d 1ee4 9fbc 7552 30bd b1a5 f83c
000000d0: 9ffe 53bd 92e8 3b3a d27e b33b 716c 8f3c
000000e0: 9e99 393c 9d32 723d 31d1 c33c 0f7e eb3b
000000f0: 0cd0 c73c beec 0dbd b781 1b3d e72c 253c
0.042427976 0.044501867 0.07616551 0.01599288 0.02680352 0.005086318 -0.023566892 0.033633728
0.04559808 -0.012166177 0.05984548 0.011239893 0.0023228647 -0.03983923 0.031835716 0.030352801
-0.0040225117 0.01242922 -0.013903698 -0.018321373 0.06093867 0.020134673 -0.03191911 -0.019968122
0.02223336 -0.030055735 -0.012344526 0.024292925 -0.03710096 0.031688277 0.042962644 0.033231277
0.01578042 -0.01286851 0.033823293 0.022098986 -0.019144822 -0.017766476 0.023260318 0.096812196
0.0023582438 0.01257619 0.028946683 0.039149392 0.013798518 -0.022581995 0.04968042 -0.022024425
0.07428378 -0.019517954 -0.043047387 0.030352445 -0.051756497 0.00071681396 0.0054777646 0.017507764
0.011328129 0.0591303 0.023903461 0.007186658 0.024391197 -0.034649603 0.037965503 0.010081506

arith.constant5 f4 [128]
00000000: 6c39 83bc fdc2 3cbd 5586 dabc c627 bcbc
00000010: d3fd 943c 02d9 2ebc cea1 34bd ee8d 39bd
00000020: 3c81 45bd 8c77 b93c 7cd7 853b ad1e 2ebd
00000030: eeee 0dbd 056b 4b3c 618d aabb e2cd bfbc
00000040: 2b79 0dba 09d0 7bbd c0cd 563c 5d73 90bd
00000050: b657 063d eb25 de3c 941b 1fbd 2714 bbbc
00000060: 4d42 353c d614 a03d 7af2 513d 1873 ce3c
00000070: c69f 353a cd3e 12bd 5058 2c3d 27af f43c
00000080: 19d6 883d 4519 1cbd a41a 663c 76c6 3fbb
00000090: 3ebd e33c 8209 58bb 9bdf 8d3d cf52 03bd
000000a0: eac2 06bd 267d e7bc 013a 32bd 6788 913c
000000b0: 32c6 903c 354e 4dbc b920 3fbc 0fd5 a53c
000000c0: 9291 933c 7781 a3bc d8b5 a73c 38f6 1a3c
000000d0: 5af9 b63a 0fe3 b33c df72 e83c 34c4 7a3d
000000e0: 43f2 a9bd c08b bfba 48d6 6ebc 3095 993c
000000f0: 7b2f 283d 418e 2ebd fb04 f9bc 6f4a 5c3b
00000100: 191a c73b 544f 123d 8c9f ffbb d46e ca3c
00000110: 6dfb 79bc 0cc2 9abc bc46 793b af17 a5bc
00000120: 20d6 233c e736 3abd 7fab 943d 79f2 0abd
00000130: 631a dabc af9a 013d efac 99bc 6ff2 e83b
00000140: fa35 b73b a41f 5bbc 6f42 9f3d 1ecb 213d
00000150: 9c59 5e3d 8cd5 8e3d 1fd8 03bc 4a2f 1d3c
00000160: 2e51 623d 6aba 003d 7c73 9a39 059f 86bd
00000170: 44d0 01bd fb12 ae3c 41c3 723c 3663 4eb9
00000180: e2de 303d 9f93 103c c627 4a3d 5257 be3d
00000190: efb2 843c 2e71 843c 2011 ebbc 699e e5bc
000001a0: e0e7 213d 89d6 60bd b365 62bb fbd9 453c
000001b0: 3671 8d3c 2b00 7bbd d540 5c3d 6bb3 0cbd
000001c0: 03b4 16bd ed09 553d 9840 f0bc b3a0 8f3c
000001d0: 6980 81bc ebdb 1a3c 32ba 4e3d 85bb 263c
000001e0: 9df4 013d 5982 a33c d6b2 81bc 1de7 b93b
000001f0: 8ef4 513c 40a5 0d3d f664 623d fb5a a1bd
-0.016018592 -0.046084393 -0.026675383 -0.022968184 0.01818744 -0.010671856 -0.04409962 -0.04530137
-0.04821895 0.022640012 0.0040845256 -0.042509723 -0.03465169 0.012415652 -0.005204842 -0.023413602
-0.00053967786 -0.061477695 0.013110578 -0.07053254 0.03279849 0.02711769 -0.03884466 -0.022836758
0.011063171 0.07816474 0.051256634 0.025201365 0.000692841 -0.035704423 0.04207641 0.029868675
0.06681461 -0.038110036 0.014044438 -0.002926258 0.027800199 -0.0032964651 0.06927415 -0.032061394
-0.03290073 -0.028257918 -0.043512348 0.017765237 0.017672632 -0.012530853 -0.0116655165 0.020243196
0.01801375 -0.019959195 0.020472452 0.009458117 0.0013959811 0.021958856 0.028375087 0.06122227
-0.08298161 -0.0014613792 -0.014577456 0.018747896 0.041060906 -0.042616133 -0.030397883 0.0033613702
0.006076109 0.035720184 -0.007801002 0.02471105 -0.0152576985 -0.018891357 0.0038036546 -0.020152895
0.009999782 -0.045462515 0.07259273 -0.033922646 -0.02662391 0.03164166 -0.018759219 0.0071089785
0.0055911513 -0.013374243 0.07776343 0.03950035 0.054284677 0.069743246 -0.008047133 0.009593794
0.0552532 0.03142778 0.00029459212 -0.06573299 -0.03169276 0.021249285 0.01481706 -0.0001968265
0.043181308 0.008824258 0.049354337 0.09293999 0.016198603 0.01616725 -0.02869469 -0.028029637
0.039527774 -0.054892097 -0.003454548 0.012075896 0.017265897 -0.061279457 0.053772766 -0.034350794
-0.036792766 0.05201142 -0.029327676 0.017532682 -0.015808301 0.009451847 0.05047054 0.010176544
0.031727422 0.019959616 -0.015832346 0.005673303 0.012814654 0.034581423 0.055272065 -0.07878681
